…
용","photoUrl":"","userId":"17506418350267611748"}},"outputId":"8672acac-76d3-4bb1-b42e-64bff39f288d"},"source":["conv_base.summary()"],"execution_count":42,"outputs":[{"output_type":"stream","text":["Model: \"vgg16\"\n","_________________________________________________________________\n","Layer (type)                 Output Shape              Param #   \n","=================================================================\n","input_1 (InputLayer)         [(None, 150, 150, 3)]     0         \n","_________________________________________________________________\n","block1_conv1 (Conv2D)        (None, 150, 150, 64)      1792      \n","_________________________________________________________________\n","block1_conv2 (Conv2D)        (None, 150, 150, 64)      36928     \n","_________________________________________________________________\n","block1_pool (MaxPooling2D)   (None, 75, 75, 64)        0         \n","_________________________________________________________________\n","block2_conv1 (Conv2D)        (None, 75, 75, 128)       73856     \n","_________________________________________________________________\n","block2_conv2 (Conv2D)        (None, 75, 75, 128)       147584    \n","_________________________________________________________________\n","block2_pool (MaxPooling2D)   (None, 37, 37, 128)       0         \n","_________________________________________________________________\n","block3_conv1 (Conv2D)        (None, 37, 37, 256)       295168    \n","_________________________________________________________________\n","block3_conv2 (Conv2D)        (None, 37, 37, 256)       590080    \n","_________________________________________________________________\n","block3_conv3 (Conv2D)        (None, 37, 37, 256)       590080    \n","_________________________________________________________________\n","block3_pool (MaxPooling2D)   (None, 18, 18, 256)       0         \n","_________________________________________________________________\n","block4_conv1 (Conv2D)        (None, 18, 18, 512)       1180160   \n","_________________________________________________________________\n","block4_conv2 (Conv2D)        (None, 18, 18, 512)       2359808   \n","_________________________________________________________________\n","block4_conv3 (Conv2D)        (None, 18, 18, 512)       2359808   \n","_________________________________________________________________\n","block4_pool (MaxPooling2D)   (None, 9, 9, 512)         0         \n","_________________________________________________________________\n","block5_conv1 (Conv2D)        (None, 9, 9, 512)         2359808   \n","_________________________________________________________________\n","block5_conv2 (Conv2D)        (None, 9, 9, 512)         2359808   \n","_________________________________________________________________\n","block5_conv3 (Conv2D)        (None, 9, 9, 512)         2359808   \n","_________________________________________________________________\n","block5_pool (MaxPooling2D)   (None, 4, 4, 512)         0         \n","=================================================================\n","Total params: 14,714,688\n","Trainable params: 14,714,688\n","Non-trainable params: 0\n","_________________________________________________________________\n"],"name":"stdout"}]},{"cell_type":"code","metadata":{"id":"Dd7CQpl86nnw","colab":{"base_uri":"https://localhost:8080/"},"executionInfo":{"status":"ok","timest
…
-540,"elapsed":4024,"user":{"displayName":"심훈용","photoUrl":"","userId":"17506418350267611748"}},"outputId":"9551ebb4-17f4-481b-d1cb-48753a1d46a7"},"source":["# 저정한 모델 로드\n","model = keras.models.load_model(drive_path + 'cats_and_dogs_small_2.h5')\n","model.summary()"],"execution_count":5,"outputs":[{"output_type":"stream","text":["Model: \"sequential_1\"\n","_________________________________________________________________\n","Layer (type)                 Output Shape              Param #   \n","=================================================================\n","conv2d_4 (Conv2D)            (None, 148, 148, 32)      896       \n","_________________________________________________________________\n","max_pooling2d_4 (MaxPooling2 (None, 74, 74, 32)        0         \n","_________________________________________________________________\n","conv2d_5 (Conv2D)            (None, 72, 72, 64)        18496     \n","_________________________________________________________________\n","max_pooling2d_5 (MaxPooling2 (None, 36, 36, 64)        0         \n","_________________________________________________________________\n","conv2d_6 (Conv2D)            (None, 34, 34, 128)       73856     \n","_________________________________________________________________\n","max_pooling2d_6 (MaxPooling2 (None, 17, 17, 128)       0         \n","_________________________________________________________________\n","conv2d_7 (Conv2D)            (None, 15, 15, 128)       147584    \n","_________________________________________________________________\n","max_pooling2d_7 (MaxPooling2 (None, 7, 7, 128)         0         \n","_________________________________________________________________\n","flatten_1 (Flatten)          (None, 6272)              0         \n","_________________________________________________________________\n","dropout (Dropout)            (None, 6272)              0         \n","_________________________________________________________________\n","dense_2 (Dense)              (None, 512)               3211776   \n","_________________________________________________________________\n","dense_3 (Dense)              (None, 1)                 513       \n","=================================================================\n","Total params: 3,453,121\n","Trainable params: 3,453,121\n","Non-trainable params: 0\n","_________________________________________________________________\n"],"name":"stdout"}]},{"cell_type":"code","metadata":{"id":"LQ6zkB2Z6nn3","colab":{"base_uri":"https://localhost:8080/"},"executionInfo":{"status":"ok","timestamp"
…
,"# 입력에 대해 8개 층의 출력을 반환하는 모델을 생성\n","activ_model = keras.Model(inputs=model.input, outputs=layer_outputs)\n","activ_model.summary()"],"execution_count":9,"outputs":[{"output_type":"stream","text":["Model: \"model_1\"\n","_________________________________________________________________\n","Layer (type)                 Output Shape              Param #   \n","=================================================================\n","conv2d_4_input (InputLayer)  [(None, 150, 150, 3)]     0         \n","_________________________________________________________________\n","conv2d_4 (Conv2D)            (None, 148, 148, 32)      896       \n","_________________________________________________________________\n","max_pooling2d_4 (MaxPooling2 (None, 74, 74, 32)        0         \n","_________________________________________________________________\n","conv2d_5 (Conv2D)            (None, 72, 72, 64)        18496     \n","_________________________________________________________________\n","max_pooling2d_5 (MaxPooling2 (None, 36, 36, 64)        0         \n","_________________________________________________________________\n","conv2d_6 (Conv2D)            (None, 34, 34, 128)       73856     \n","_________________________________________________________________\n","max_pooling2d_6 (MaxPooling2 (None, 17, 17, 128)       0         \n","_________________________________________________________________\n","conv2d_7 (Conv2D)            (None, 15, 15, 128)       147584    \n","_________________________________________________________________\n","max_pooling2d_7 (MaxPooling2 (None, 7, 7, 128)         0         \n","=================================================================\n","Total params: 240,832\n","Trainable params: 240,832\n","Non-trainable params: 0\n","_________________________________________________________________\n"],"name":"stdout"}]},{"cell_type":"code","metadata":{"id":"rwi5ePUK6nn4","colab":{"base_uri":"https://localhost:8080/"},"executionInfo":{"status":"ok","timestamp":1
…
