…
},"id":"8OjPHGZF1RE8","executionInfo":{"status":"ok","timestamp":1620743655180,"user_tz":-540,"elapsed":247215,"user":{"displayName":"심훈용","photoUrl":"","userId":"17506418350267611748"}},"outputId":"28869181-de3d-4559-817e-4a1215f88de4"},"source":["model.summary()"],"execution_count":141,"outputs":[{"output_type":"stream","text":["Model: \"sequential_1\"\n","_________________________________________________________________\n","Layer (type)                 Output Shape              Param #   \n","=================================================================\n","conv2d_4 (Conv2D)            (None, 148, 148, 32)      896       \n","_________________________________________________________________\n","max_pooling2d_4 (MaxPooling2 (None, 74, 74, 32)        0         \n","_________________________________________________________________\n","conv2d_5 (Conv2D)            (None, 72, 72, 64)        18496     \n","_________________________________________________________________\n","max_pooling2d_5 (MaxPooling2 (None, 36, 36, 64)        0         \n","_________________________________________________________________\n","conv2d_6 (Conv2D)            (None, 34, 34, 128)       73856     \n","_________________________________________________________________\n","max_pooling2d_6 (MaxPooling2 (None, 17, 17, 128)       0         \n","_________________________________________________________________\n","conv2d_7 (Conv2D)            (None, 15, 15, 128)       147584    \n","_________________________________________________________________\n","max_pooling2d_7 (MaxPooling2 (None, 7, 7, 128)         0         \n","_________________________________________________________________\n","flatten_1 (Flatten)          (None, 6272)              0         \n","_________________________________________________________________\n","dense_2 (Dense)              (None, 512)               3211776   \n","_________________________________________________________________\n","dense_3 (Dense)              (None, 1)                 513       \n","=================================================================\n","Total params: 3,453,121\n","Trainable params: 3,453,121\n","Non-trainable params: 0\n","_________________________________________________________________\n"],"name":"stdout"}]},{"cell_type":"code","metadata":{"id":"fxEBmU7fKN7i","executionInfo":{"status":"ok","timestamp":1620743655180,"user_tz":-540,"elapsed":247208,
…
